…
I0223 17:26:08.018249 18646 net.cpp:322] The NetState phase (0) differed from the phase (1) specified by a rule in layer cifar
I0223 17:26:08.018263 18646 net.cpp:322] The NetState phase (0) differed from the phase (1) specified by a rule in layer accuracy
I0223 17:26:08.018343 18646 net.cpp:49] Initializing net from parameters: 
name: "CIFAR10_full"
state {
  phase: TRAIN
}
layer {
  name: "cifar"
  type: "Data"
  top: "data"
  top: "label"
  include {
    phase: TRAIN
  }
  transform_param {
    mean_file: "examples/cifar10/cifar10/mean.binaryproto"
  }
  data_param {
    source: "examples/cifar10/cifar10/cifar10_train_lmdb"
    batch_size: 100
    backend: LMDB
  }
}
layer {
  name: "conv1"
  type: "Convolution"
  bottom: "data"
  top: "conv1"
  param {
    lr_mult: 1
  }
  param {
    lr_mult: 2
  }
  convolution_param {
    num_output: 32
    pad: 2
    kernel_size: 5
    stride: 1
    weight_filler {
      type: "gaussian"
      std: 0.0001
    }
    bias_filler {
      type: "constant"
    }
  }
}
layer {
  name: "pool1"
  type: "Pooling"
  bottom: "conv1"
  top: "pool1"
  pooling_param {
    pool: MAX
    kernel_size: 3
    stride: 2
  }
}
layer {
  name: "relu1"
  type: "ReLU"
  bottom: "pool1"
  top: "pool1"
}
layer {
  name: "norm1"
  type: "LRN"
  bottom: "pool1"
  top: "norm1"
  lrn_param {
    local_size: 3
    alpha: 5e-05
    beta: 0.75
    norm_region: WITHIN_CHANNEL
  }
}
layer {
  name: "conv2"
  type: "Convolution"
  bottom: "norm1"
  top: "conv2"
  param {
    lr_mult: 1
  }
  param {
    lr_mult: 2
  }
  convolution_param {
    num_output: 32
    pad: 2
    kernel_size: 5
    stride: 1
    weight_filler {
      type: "gaussian"
      std: 0.01
    }
    bias_filler {
      type: "constant"
    }
  }
}
layer {
  name: "relu2"
  type: "ReLU"
  bottom: "conv2"
  top: "conv2"
}
layer {
  name: "pool2"
  type: "Pooling"
  bottom: "conv2"
  top: "pool2"
  pooling_param {
    pool: AVE
    kernel_size: 3
    stride: 2
  }
}
layer {
  name: "norm2"
  type: "LRN"
  bottom: "pool2"
  top: "norm2"
  lrn_param {
    local_size: 3
    alpha: 5e-05
    beta: 0.75
    norm_region: WITHIN_CHANNEL
  }
}
layer {
  name: "conv3"
  type: "Convolution"
  bottom: "norm2"
  top: "conv3"
  convolution_param {
    num_output: 64
    pad: 2
    kernel_size: 5
    stride: 1
    weight_filler {
      type: "gaussian"
      std: 0.01
    }
    bias_filler {
      type: "constant"
    }
  }
}
layer {
  name: "relu3"
  type: "ReLU"
  bottom: "conv3"
  top: "conv3"
}
layer {
  name: "pool3"
  type: "Pooling"
  bottom: "conv3"
  top: "pool3"
  pooling_param {
    pool: AVE
    kernel_size: 3
    stride: 2
  }
}
layer {
  name: "ip1"
  type: "InnerProduct"
  bottom: "pool3"
  top: "ip1"
  param {
    lr_mult: 1
    decay_mult: 250
  }
  param {
    lr_mult: 2
    decay_mult: 0
  }
  inner_product_param {
    num_output: 10
    weight_filler {
      type: "gaussian"
      std: 0.01
    }
    bias_filler {
      type: "constant"
    }
  }
}
layer {
  name: "loss"
  type: "SoftmaxWithLoss"
  bottom: "ip1"
  bottom: "label"
  top: "loss"
}
I0223 17:26:08.018399 18646 layer_factory.hpp:76] Creating layer cifar
I0223 17:26:08.018760 18646 net.cpp:106] Creating Layer cifar
I0223 17:26:08.018769 18646 net.cpp:411] cifar -> data
I0223 17:26:08.018786 18646 net.cpp:411] cifar -> label
I0223 17:26:08.018798 18646 data_transformer.cpp:25] Loading mean file from: examples/cifar10/cifar10/mean.binaryproto
I0223 17:26:08.019456 18649 db_lmdb.cpp:38] Opened lmdb examples/cifar10/cifar10/cifar10_train_lmdb
I0223 17:26:08.024821 18646 data_layer.cpp:45] output data size: 100,3,32,32
I0223 17:26:08.026891 18646 net.cpp:150] Setting up cifar
I0223 17:26:08.026911 18646 net.cpp:157] Top shape: 100 3 32 32 (307200)
I0223 17:26:08.026916 18646 net.cpp:157] Top shape: 100 (100)
I0223 17:26:08.026919 18646 net.cpp:165] Memory required for data: 1229200
I0223 17:26:08.026926 18646 layer_factory.hpp:76] Creating layer conv1
I0223 17:26:08.026940 18646 net.cpp:106] Creating Layer conv1
I0223 17:26:08.026945 18646 net.cpp:454] conv1 <- data
I0223 17:26:08.026955 18646 net.cpp:411] conv1 -> conv1
I0223 17:26:08.122028 18646 cudnn_conv_layer.cpp:198] Reallocating workspace storage: 21504
I0223 17:26:08.122064 18646 net.cpp:150] Setting up conv1
I0223 17:26:08.122076 18646 net.cpp:157] Top shape: 100 32 32 32 (3276800)
I0223 17:26:08.122079 18646 net.cpp:165] Memory required for data: 14336400
I0223 17:26:08.122094 18646 layer_factory.hpp:76] Creating layer pool1
I0223 17:26:08.122107 18646 net.cpp:106] Creating Layer pool1
I0223 17:26:08.122112 18646 net.cpp:454] pool1 <- conv1
I0223 17:26:08.122118 18646 net.cpp:411] pool1 -> pool1
I0223 17:26:08.122421 18646 net.cpp:150] Setting up pool1
I0223 17:26:08.122431 18646 net.cpp:157] Top shape: 100 32 16 16 (819200)
I0223 17:26:08.122433 18646 net.cpp:165] Memory required for data: 17613200
I0223 17:26:08.122437 18646 layer_factory.hpp:76] Creating layer relu1
I0223 17:26:08.122443 18646 net.cpp:106] Creating Layer relu1
I0223 17:26:08.122447 18646 net.cpp:454] relu1 <- pool1
I0223 17:26:08.122452 18646 net.cpp:397] relu1 -> pool1 (in-place)
I0223 17:26:08.122570 18646 net.cpp:150] Setting up relu1
I0223 17:26:08.122576 18646 net.cpp:157] Top shape: 100 32 16 16 (819200)
I0223 17:26:08.122580 18646 net.cpp:165] Memory required for data: 20890000
I0223 17:26:08.122582 18646 layer_factory.hpp:76] Creating layer norm1
I0223 17:26:08.122592 18646 net.cpp:106] Creating Layer norm1
I0223 17:26:08.122596 18646 net.cpp:454] norm1 <- pool1
I0223 17:26:08.122601 18646 net.cpp:411] norm1 -> norm1
I0223 17:26:08.123193 18646 net.cpp:150] Setting up norm1
I0223 17:26:08.123203 18646 net.cpp:157] Top shape: 100 32 16 16 (819200)
I0223 17:26:08.123205 18646 net.cpp:165] Memory required for data: 24166800
I0223 17:26:08.123209 18646 layer_factory.hpp:76] Creating layer conv2
I0223 17:26:08.123219 18646 net.cpp:106] Creating Layer conv2
I0223 17:26:08.123222 18646 net.cpp:454] conv2 <- norm1
I0223 17:26:08.123227 18646 net.cpp:411] conv2 -> conv2
I0223 17:26:08.124586 18646 cudnn_conv_layer.cpp:198] Reallocating workspace storage: 14016
I0223 17:26:08.124738 18646 net.cpp:150] Setting up conv2
I0223 17:26:08.124747 18646 net.cpp:157] Top shape: 100 32 16 16 (819200)
I0223 17:26:08.124749 18646 net.cpp:165] Memory required for data: 27443600
I0223 17:26:08.124758 18646 layer_factory.hpp:76] Creating layer relu2
I0223 17:26:08.124763 18646 net.cpp:106] Creating Layer relu2
I0223 17:26:08.124765 18646 net.cpp:454] relu2 <- conv2
I0223 17:26:08.124770 18646 net.cpp:397] relu2 -> conv2 (in-place)
I0223 17:26:08.124886 18646 net.cpp:150] Setting up relu2
I0223 17:26:08.124892 18646 net.cpp:157] Top shape: 100 32 16 16 (819200)
I0223 17:26:08.124896 18646 net.cpp:165] Memory required for data: 30720400
I0223 17:26:08.124898 18646 layer_factory.hpp:76] Creating layer pool2
I0223 17:26:08.124904 18646 net.cpp:106] Creating Layer pool2
I0223 17:26:08.124907 18646 net.cpp:454] pool2 <- conv2
I0223 17:26:08.124912 18646 net.cpp:411] pool2 -> pool2
I0223 17:26:08.125165 18646 net.cpp:150] Setting up pool2
I0223 17:26:08.125174 18646 net.cpp:157] Top shape: 100 32 8 8 (204800)
I0223 17:26:08.125177 18646 net.cpp:165] Memory required for data: 31539600
I0223 17:26:08.125180 18646 layer_factory.hpp:76] Creating layer norm2
I0223 17:26:08.125187 18646 net.cpp:106] Creating Layer norm2
I0223 17:26:08.125190 18646 net.cpp:454] norm2 <- pool2
I0223 17:26:08.125195 18646 net.cpp:411] norm2 -> norm2
I0223 17:26:08.125627 18646 net.cpp:150] Setting up norm2
I0223 17:26:08.125643 18646 net.cpp:157] Top shape: 100 32 8 8 (204800)
I0223 17:26:08.125646 18646 net.cpp:165] Memory required for data: 32358800
I0223 17:26:08.125649 18646 layer_factory.hpp:76] Creating layer conv3
I0223 17:26:08.125656 18646 net.cpp:106] Creating Layer conv3
I0223 17:26:08.125659 18646 net.cpp:454] conv3 <- norm2
I0223 17:26:08.125664 18646 net.cpp:411] conv3 -> conv3
I0223 17:26:08.126910 18646 cudnn_conv_layer.cpp:198] Reallocating workspace storage: 10272
I0223 17:26:08.126926 18646 net.cpp:150] Setting up conv3
I0223 17:26:08.126932 18646 net.cpp:157] Top shape: 100 64 8 8 (409600)
I0223 17:26:08.126935 18646 net.cpp:165] Memory required for data: 33997200
I0223 17:26:08.126943 18646 layer_factory.hpp:76] Creating layer relu3
I0223 17:26:08.126948 18646 net.cpp:106] Creating Layer relu3
I0223 17:26:08.126951 18646 net.cpp:454] relu3 <- conv3
I0223 17:26:08.126956 18646 net.cpp:397] relu3 -> conv3 (in-place)
I0223 17:26:08.127198 18646 net.cpp:150] Setting up relu3
I0223 17:26:08.127207 18646 net.cpp:157] Top shape: 100 64 8 8 (409600)
I0223 17:26:08.127210 18646 net.cpp:165] Memory required for data: 35635600
I0223 17:26:08.127213 18646 layer_factory.hpp:76] Creating layer pool3
I0223 17:26:08.127219 18646 net.cpp:106] Creating Layer pool3
I0223 17:26:08.127223 18646 net.cpp:454] pool3 <- conv3
I0223 17:26:08.127226 18646 net.cpp:411] pool3 -> pool3
I0223 17:26:08.127338 18646 net.cpp:150] Setting up pool3
I0223 17:26:08.127344 18646 net.cpp:157] Top shape: 100 64 4 4 (102400)
I0223 17:26:08.127348 18646 net.cpp:165] Memory required for data: 36045200
I0223 17:26:08.127352 18646 layer_factory.hpp:76] Creating layer ip1
I0223 17:26:08.127358 18646 net.cpp:106] Creating Layer ip1
I0223 17:26:08.127362 18646 net.cpp:454] ip1 <- pool3
I0223 17:26:08.127367 18646 net.cpp:411] ip1 -> ip1
I0223 17:26:08.127851 18646 net.cpp:150] Setting up ip1
I0223 17:26:08.127861 18646 net.cpp:157] Top shape: 100 10 (1000)
I0223 17:26:08.127864 18646 net.cpp:165] Memory required for data: 36049200
I0223 17:26:08.127871 18646 layer_factory.hpp:76] Creating layer loss
I0223 17:26:08.127876 18646 net.cpp:106] Creating Layer loss
I0223 17:26:08.127878 18646 net.cpp:454] loss <- ip1
I0223 17:26:08.127882 18646 net.cpp:454] loss <- label
I0223 17:26:08.127887 18646 net.cpp:411] loss -> loss
I0223 17:26:08.127895 18646 layer_factory.hpp:76] Creating layer loss
…
I0223 17:26:08.128602 18646 solver.cpp:180] Creating test net (#0) specified by net file: examples/cifar10/cifar10_full_train_test.prototxt
I0223 17:26:08.128639 18646 net.cpp:322] The NetState phase (1) differed from the phase (0) specified by a rule in layer cifar
I0223 17:26:08.128743 18646 net.cpp:49] Initializing net from parameters: 
name: "CIFAR10_full"
state {
  phase: TEST
}
layer {
  name: "cifar"
  type: "Data"
  top: "data"
  top: "label"
  include {
    phase: TEST
  }
  transform_param {
    mean_file: "examples/cifar10/cifar10/mean.binaryproto"
  }
  data_param {
    source: "examples/cifar10/cifar10/cifar10_test_lmdb"
    batch_size: 100
    backend: LMDB
  }
}
layer {
  name: "conv1"
  type: "Convolution"
  bottom: "data"
  top: "conv1"
  param {
    lr_mult: 1
  }
  param {
    lr_mult: 2
  }
  convolution_param {
    num_output: 32
    pad: 2
    kernel_size: 5
    stride: 1
    weight_filler {
      type: "gaussian"
      std: 0.0001
    }
    bias_filler {
      type: "constant"
    }
  }
}
layer {
  name: "pool1"
  type: "Pooling"
  bottom: "conv1"
  top: "pool1"
  pooling_param {
    pool: MAX
    kernel_size: 3
    stride: 2
  }
}
layer {
  name: "relu1"
  type: "ReLU"
  bottom: "pool1"
  top: "pool1"
}
layer {
  name: "norm1"
  type: "LRN"
  bottom: "pool1"
  top: "norm1"
  lrn_param {
    local_size: 3
    alpha: 5e-05
    beta: 0.75
    norm_region: WITHIN_CHANNEL
  }
}
layer {
  name: "conv2"
  type: "Convolution"
  bottom: "norm1"
  top: "conv2"
  param {
    lr_mult: 1
  }
  param {
    lr_mult: 2
  }
  convolution_param {
    num_output: 32
    pad: 2
    kernel_size: 5
    stride: 1
    weight_filler {
      type: "gaussian"
      std: 0.01
    }
    bias_filler {
      type: "constant"
    }
  }
}
layer {
  name: "relu2"
  type: "ReLU"
  bottom: "conv2"
  top: "conv2"
}
layer {
  name: "pool2"
  type: "Pooling"
  bottom: "conv2"
  top: "pool2"
  pooling_param {
    pool: AVE
    kernel_size: 3
    stride: 2
  }
}
layer {
  name: "norm2"
  type: "LRN"
  bottom: "pool2"
  top: "norm2"
  lrn_param {
    local_size: 3
    alpha: 5e-05
    beta: 0.75
    norm_region: WITHIN_CHANNEL
  }
}
layer {
  name: "conv3"
  type: "Convolution"
  bottom: "norm2"
  top: "conv3"
  convolution_param {
    num_output: 64
    pad: 2
    kernel_size: 5
    stride: 1
    weight_filler {
      type: "gaussian"
      std: 0.01
    }
    bias_filler {
      type: "constant"
    }
  }
}
layer {
  name: "relu3"
  type: "ReLU"
  bottom: "conv3"
  top: "conv3"
}
layer {
  name: "pool3"
  type: "Pooling"
  bottom: "conv3"
  top: "pool3"
  pooling_param {
    pool: AVE
    kernel_size: 3
    stride: 2
  }
}
layer {
  name: "ip1"
  type: "InnerProduct"
  bottom: "pool3"
  top: "ip1"
  param {
    lr_mult: 1
    decay_mult: 250
  }
  param {
    lr_mult: 2
    decay_mult: 0
  }
  inner_product_param {
    num_output: 10
    weight_filler {
      type: "gaussian"
      std: 0.01
    }
    bias_filler {
      type: "constant"
    }
  }
}
layer {
  name: "accuracy"
  type: "Accuracy"
  bottom: "ip1"
  bottom: "label"
  top: "accuracy"
  include {
    phase: TEST
  }
}
layer {
  name: "loss"
  type: "SoftmaxWithLoss"
  bottom: "ip1"
  bottom: "label"
  top: "loss"
}
I0223 17:26:08.128800 18646 layer_factory.hpp:76] Creating layer cifar
I0223 17:26:08.128875 18646 net.cpp:106] Creating Layer cifar
I0223 17:26:08.128882 18646 net.cpp:411] cifar -> data
I0223 17:26:08.128890 18646 net.cpp:411] cifar -> label
I0223 17:26:08.128895 18646 data_transformer.cpp:25] Loading mean file from: examples/cifar10/cifar10/mean.binaryproto
I0223 17:26:08.129626 18651 db_lmdb.cpp:38] Opened lmdb examples/cifar10/cifar10/cifar10_test_lmdb
I0223 17:26:08.129720 18646 data_layer.cpp:45] output data size: 100,3,32,32
I0223 17:26:08.131896 18646 net.cpp:150] Setting up cifar
I0223 17:26:08.131911 18646 net.cpp:157] Top shape: 100 3 32 32 (307200)
I0223 17:26:08.131917 18646 net.cpp:157] Top shape: 100 (100)
I0223 17:26:08.131921 18646 net.cpp:165] Memory required for data: 1229200
I0223 17:26:08.131924 18646 layer_factory.hpp:76] Creating layer label_cifar_1_split
I0223 17:26:08.131932 18646 net.cpp:106] Creating Layer label_cifar_1_split
I0223 17:26:08.131937 18646 net.cpp:454] label_cifar_1_split <- label
I0223 17:26:08.131942 18646 net.cpp:411] label_cifar_1_split -> label_cifar_1_split_0
I0223 17:26:08.131956 18646 net.cpp:411] label_cifar_1_split -> label_cifar_1_split_1
I0223 17:26:08.132005 18646 net.cpp:150] Setting up label_cifar_1_split
I0223 17:26:08.132011 18646 net.cpp:157] Top shape: 100 (100)
I0223 17:26:08.132015 18646 net.cpp:157] Top shape: 100 (100)
I0223 17:26:08.132019 18646 net.cpp:165] Memory required for data: 1230000
I0223 17:26:08.132021 18646 layer_factory.hpp:76] Creating layer conv1
I0223 17:26:08.132030 18646 net.cpp:106] Creating Layer conv1
I0223 17:26:08.132032 18646 net.cpp:454] conv1 <- data
I0223 17:26:08.132037 18646 net.cpp:411] conv1 -> conv1
I0223 17:26:08.133062 18646 cudnn_conv_layer.cpp:198] Reallocating workspace storage: 21504
I0223 17:26:08.133093 18646 net.cpp:150] Setting up conv1
I0223 17:26:08.133100 18646 net.cpp:157] Top shape: 100 32 32 32 (3276800)
I0223 17:26:08.133105 18646 net.cpp:165] Memory required for data: 14337200
I0223 17:26:08.133122 18646 layer_factory.hpp:76] Creating layer pool1
I0223 17:26:08.133131 18646 net.cpp:106] Creating Layer pool1
I0223 17:26:08.133133 18646 net.cpp:454] pool1 <- conv1
I0223 17:26:08.133137 18646 net.cpp:411] pool1 -> pool1
I0223 17:26:08.133280 18646 net.cpp:150] Setting up pool1
I0223 17:26:08.133287 18646 net.cpp:157] Top shape: 100 32 16 16 (819200)
I0223 17:26:08.133291 18646 net.cpp:165] Memory required for data: 17614000
I0223 17:26:08.133293 18646 layer_factory.hpp:76] Creating layer relu1
I0223 17:26:08.133299 18646 net.cpp:106] Creating Layer relu1
I0223 17:26:08.133302 18646 net.cpp:454] relu1 <- pool1
I0223 17:26:08.133307 18646 net.cpp:397] relu1 -> pool1 (in-place)
I0223 17:26:08.133568 18646 net.cpp:150] Setting up relu1
I0223 17:26:08.133576 18646 net.cpp:157] Top shape: 100 32 16 16 (819200)
I0223 17:26:08.133579 18646 net.cpp:165] Memory required for data: 20890800
I0223 17:26:08.133582 18646 layer_factory.hpp:76] Creating layer norm1
I0223 17:26:08.133589 18646 net.cpp:106] Creating Layer norm1
I0223 17:26:08.133594 18646 net.cpp:454] norm1 <- pool1
I0223 17:26:08.133599 18646 net.cpp:411] norm1 -> norm1
I0223 17:26:08.134058 18646 net.cpp:150] Setting up norm1
I0223 17:26:08.134068 18646 net.cpp:157] Top shape: 100 32 16 16 (819200)
I0223 17:26:08.134070 18646 net.cpp:165] Memory required for data: 24167600
I0223 17:26:08.134073 18646 layer_factory.hpp:76] Creating layer conv2
I0223 17:26:08.134083 18646 net.cpp:106] Creating Layer conv2
I0223 17:26:08.134085 18646 net.cpp:454] conv2 <- norm1
I0223 17:26:08.134090 18646 net.cpp:411] conv2 -> conv2
I0223 17:26:08.135277 18646 cudnn_conv_layer.cpp:198] Reallocating workspace storage: 14016
I0223 17:26:08.135295 18646 net.cpp:150] Setting up conv2
I0223 17:26:08.135300 18646 net.cpp:157] Top shape: 100 32 16 16 (819200)
I0223 17:26:08.135303 18646 net.cpp:165] Memory required for data: 27444400
I0223 17:26:08.135311 18646 layer_factory.hpp:76] Creating layer relu2
I0223 17:26:08.135318 18646 net.cpp:106] Creating Layer relu2
I0223 17:26:08.135320 18646 net.cpp:454] relu2 <- conv2
I0223 17:26:08.135325 18646 net.cpp:397] relu2 -> conv2 (in-place)
I0223 17:26:08.135596 18646 net.cpp:150] Setting up relu2
I0223 17:26:08.135604 18646 net.cpp:157] Top shape: 100 32 16 16 (819200)
I0223 17:26:08.135607 18646 net.cpp:165] Memory required for data: 30721200
I0223 17:26:08.135610 18646 layer_factory.hpp:76] Creating layer pool2
I0223 17:26:08.135633 18646 net.cpp:106] Creating Layer pool2
I0223 17:26:08.135637 18646 net.cpp:454] pool2 <- conv2
I0223 17:26:08.135658 18646 net.cpp:411] pool2 -> pool2
I0223 17:26:08.135946 18646 net.cpp:150] Setting up pool2
I0223 17:26:08.135957 18646 net.cpp:157] Top shape: 100 32 8 8 (204800)
I0223 17:26:08.135960 18646 net.cpp:165] Memory required for data: 31540400
I0223 17:26:08.135964 18646 layer_factory.hpp:76] Creating layer norm2
I0223 17:26:08.135972 18646 net.cpp:106] Creating Layer norm2
I0223 17:26:08.135974 18646 net.cpp:454] norm2 <- pool2
I0223 17:26:08.135979 18646 net.cpp:411] norm2 -> norm2
I0223 17:26:08.136584 18646 net.cpp:150] Setting up norm2
I0223 17:26:08.136596 18646 net.cpp:157] Top shape: 100 32 8 8 (204800)
I0223 17:26:08.136605 18646 net.cpp:165] Memory required for data: 32359600
I0223 17:26:08.136608 18646 layer_factory.hpp:76] Creating layer conv3
I0223 17:26:08.136615 18646 net.cpp:106] Creating Layer conv3
I0223 17:26:08.136620 18646 net.cpp:454] conv3 <- norm2
I0223 17:26:08.136625 18646 net.cpp:411] conv3 -> conv3
I0223 17:26:08.137840 18646 cudnn_conv_layer.cpp:198] Reallocating workspace storage: 10272
I0223 17:26:08.137858 18646 net.cpp:150] Setting up conv3
I0223 17:26:08.137863 18646 net.cpp:157] Top shape: 100 64 8 8 (409600)
I0223 17:26:08.137866 18646 net.cpp:165] Memory required for data: 33998000
I0223 17:26:08.137874 18646 layer_factory.hpp:76] Creating layer relu3
I0223 17:26:08.137881 18646 net.cpp:106] Creating Layer relu3
I0223 17:26:08.137883 18646 net.cpp:454] relu3 <- conv3
I0223 17:26:08.137889 18646 net.cpp:397] relu3 -> conv3 (in-place)
I0223 17:26:08.138142 18646 net.cpp:150] Setting up relu3
I0223 17:26:08.138150 18646 net.cpp:157] Top shape: 100 64 8 8 (409600)
I0223 17:26:08.138154 18646 net.cpp:165] Memory required for data: 35636400
I0223 17:26:08.138156 18646 layer_factory.hpp:76] Creating layer pool3
I0223 17:26:08.138164 18646 net.cpp:106] Creating Layer pool3
I0223 17:26:08.138167 18646 net.cpp:454] pool3 <- conv3
I0223 17:26:08.138171 18646 net.cpp:411] pool3 -> pool3
I0223 17:26:08.138299 18646 net.cpp:150] Setting up pool3
I0223 17:26:08.138306 18646 net.cpp:157] Top shape: 100 64 4 4 (102400)
I0223 17:26:08.138309 18646 net.cpp:165] Memory required for data: 36046000
I0223 17:26:08.138314 18646 layer_factory.hpp:76] Creating layer ip1
I0223 17:26:08.138320 18646 net.cpp:106] Creating Layer ip1
I0223 17:26:08.138324 18646 net.cpp:454] ip1 <- pool3
I0223 17:26:08.138329 18646 net.cpp:411] ip1 -> ip1
I0223 17:26:08.138514 18646 net.cpp:150] Setting up ip1
I0223 17:26:08.138520 18646 net.cpp:157] Top shape: 100 10 (1000)
I0223 17:26:08.138523 18646 net.cpp:165] Memory required for data: 36050000
I0223 17:26:08.138530 18646 layer_factory.hpp:76] Creating layer ip1_ip1_0_split
I0223 17:26:08.138533 18646 net.cpp:106] Creating Layer ip1_ip1_0_split
I0223 17:26:08.138536 18646 net.cpp:454] ip1_ip1_0_split <- ip1
I0223 17:26:08.138541 18646 net.cpp:411] ip1_ip1_0_split -> ip1_ip1_0_split_0
I0223 17:26:08.138547 18646 net.cpp:411] ip1_ip1_0_split -> ip1_ip1_0_split_1
I0223 17:26:08.138572 18646 net.cpp:150] Setting up ip1_ip1_0_split
I0223 17:26:08.138577 18646 net.cpp:157] Top shape: 100 10 (1000)
I0223 17:26:08.138581 18646 net.cpp:157] Top shape: 100 10 (1000)
I0223 17:26:08.138583 18646 net.cpp:165] Memory required for data: 36058000
I0223 17:26:08.138586 18646 layer_factory.hpp:76] Creating layer accuracy
I0223 17:26:08.138593 18646 net.cpp:106] Creating Layer accuracy
I0223 17:26:08.138597 18646 net.cpp:454] accuracy <- ip1_ip1_0_split_0
I0223 17:26:08.138600 18646 net.cpp:454] accuracy <- label_cifar_1_split_0
I0223 17:26:08.138604 18646 net.cpp:411] accuracy -> accuracy
…
