…
I0223 17:17:39.088245 18554 net.cpp:322] The NetState phase (0) differed from the phase (1) specified by a rule in layer mnist
I0223 17:17:39.088259 18554 net.cpp:322] The NetState phase (0) differed from the phase (1) specified by a rule in layer accuracy
I0223 17:17:39.088332 18554 net.cpp:49] Initializing net from parameters: 
name: "LeNet"
state {
  phase: TRAIN
}
layer {
  name: "mnist"
  type: "Data"
  top: "data"
  top: "label"
  include {
    phase: TRAIN
  }
  transform_param {
    scale: 0.00390625
  }
  data_param {
    source: "examples/mnist/mnist_train_lmdb"
    batch_size: 64
    backend: LMDB
  }
}
layer {
  name: "conv1"
  type: "Convolution"
  bottom: "data"
  top: "conv1"
  param {
    lr_mult: 1
  }
  param {
    lr_mult: 2
  }
  convolution_param {
    num_output: 20
    kernel_size: 5
    stride: 1
    weight_filler {
      type: "xavier"
    }
    bias_filler {
      type: "constant"
    }
  }
}
layer {
  name: "drop3"
  type: "Dropout"
  bottom: "conv1"
  top: "conv1"
  dropout_param {
    dropout_ratio: 0.1
  }
}
layer {
  name: "relu2"
  type: "ReLU"
  bottom: "conv1"
  top: "conv1"
}
layer {
  name: "pool1"
  type: "Pooling"
  bottom: "conv1"
  top: "pool1"
  pooling_param {
    pool: MAX
    kernel_size: 2
    stride: 2
  }
}
layer {
  name: "conv2"
  type: "Convolution"
  bottom: "pool1"
  top: "conv2"
  param {
    lr_mult: 1
  }
  param {
    lr_mult: 2
  }
  convolution_param {
    num_output: 50
    kernel_size: 5
    stride: 1
    weight_filler {
      type: "xavier"
    }
    bias_filler {
      type: "constant"
    }
  }
}
layer {
  name: "drop2"
  type: "Dropout"
  bottom: "conv2"
  top: "conv2"
  dropout_param {
    dropout_ratio: 0.1
  }
}
layer {
  name: "relu3"
  type: "ReLU"
  bottom: "conv2"
  top: "conv2"
}
layer {
  name: "pool2"
  type: "Pooling"
  bottom: "conv2"
  top: "pool2"
  pooling_param {
    pool: MAX
    kernel_size: 2
    stride: 2
  }
}
layer {
  name: "ip1"
  type: "InnerProduct"
  bottom: "pool2"
  top: "ip1"
  param {
    lr_mult: 1
  }
  param {
    lr_mult: 2
  }
  inner_product_param {
    num_output: 500
    weight_filler {
      type: "xavier"
    }
    bias_filler {
      type: "constant"
    }
  }
}
layer {
  name: "relu1"
  type: "ReLU"
  bottom: "ip1"
  top: "ip1"
}
layer {
  name: "drop1"
  type: "Dropout"
  bottom: "ip1"
  top: "ip1"
  dropout_param {
    dropout_ratio: 0.5
  }
}
layer {
  name: "ip2"
  type: "InnerProduct"
  bottom: "ip1"
  top: "ip2"
  param {
    lr_mult: 1
  }
  param {
    lr_mult: 2
  }
  inner_product_param {
    num_output: 10
    weight_filler {
      type: "xavier"
    }
    bias_filler {
      type: "constant"
    }
  }
}
layer {
  name: "loss"
  type: "SoftmaxWithLoss"
  bottom: "ip2"
  bottom: "label"
  top: "loss"
}
I0223 17:17:39.088384 18554 layer_factory.hpp:76] Creating layer mnist
I0223 17:17:39.088722 18554 net.cpp:106] Creating Layer mnist
I0223 17:17:39.088731 18554 net.cpp:411] mnist -> data
I0223 17:17:39.088747 18554 net.cpp:411] mnist -> label
I0223 17:17:39.089397 18557 db_lmdb.cpp:38] Opened lmdb examples/mnist/mnist_train_lmdb
I0223 17:17:39.094882 18554 data_layer.cpp:45] output data size: 64,1,28,28
I0223 17:17:39.095578 18554 net.cpp:150] Setting up mnist
I0223 17:17:39.095595 18554 net.cpp:157] Top shape: 64 1 28 28 (50176)
I0223 17:17:39.095599 18554 net.cpp:157] Top shape: 64 (64)
I0223 17:17:39.095603 18554 net.cpp:165] Memory required for data: 200960
I0223 17:17:39.095613 18554 layer_factory.hpp:76] Creating layer conv1
I0223 17:17:39.095644 18554 net.cpp:106] Creating Layer conv1
I0223 17:17:39.095664 18554 net.cpp:454] conv1 <- data
I0223 17:17:39.095674 18554 net.cpp:411] conv1 -> conv1
I0223 17:17:39.189865 18554 cudnn_conv_layer.cpp:198] Reallocating workspace storage: 20664
I0223 17:17:39.189900 18554 net.cpp:150] Setting up conv1
I0223 17:17:39.189910 18554 net.cpp:157] Top shape: 64 20 24 24 (737280)
I0223 17:17:39.189914 18554 net.cpp:165] Memory required for data: 3150080
I0223 17:17:39.189929 18554 layer_factory.hpp:76] Creating layer drop3
I0223 17:17:39.189940 18554 net.cpp:106] Creating Layer drop3
I0223 17:17:39.189944 18554 net.cpp:454] drop3 <- conv1
I0223 17:17:39.189949 18554 net.cpp:397] drop3 -> conv1 (in-place)
I0223 17:17:39.189971 18554 net.cpp:150] Setting up drop3
I0223 17:17:39.189975 18554 net.cpp:157] Top shape: 64 20 24 24 (737280)
I0223 17:17:39.189978 18554 net.cpp:165] Memory required for data: 6099200
I0223 17:17:39.189981 18554 layer_factory.hpp:76] Creating layer relu2
I0223 17:17:39.189986 18554 net.cpp:106] Creating Layer relu2
I0223 17:17:39.189990 18554 net.cpp:454] relu2 <- conv1
I0223 17:17:39.189993 18554 net.cpp:397] relu2 -> conv1 (in-place)
I0223 17:17:39.190243 18554 net.cpp:150] Setting up relu2
I0223 17:17:39.190251 18554 net.cpp:157] Top shape: 64 20 24 24 (737280)
I0223 17:17:39.190254 18554 net.cpp:165] Memory required for data: 9048320
I0223 17:17:39.190258 18554 layer_factory.hpp:76] Creating layer pool1
I0223 17:17:39.190264 18554 net.cpp:106] Creating Layer pool1
I0223 17:17:39.190268 18554 net.cpp:454] pool1 <- conv1
I0223 17:17:39.190271 18554 net.cpp:411] pool1 -> pool1
I0223 17:17:39.190410 18554 net.cpp:150] Setting up pool1
I0223 17:17:39.190418 18554 net.cpp:157] Top shape: 64 20 12 12 (184320)
I0223 17:17:39.190421 18554 net.cpp:165] Memory required for data: 9785600
I0223 17:17:39.190424 18554 layer_factory.hpp:76] Creating layer conv2
I0223 17:17:39.190433 18554 net.cpp:106] Creating Layer conv2
I0223 17:17:39.190435 18554 net.cpp:454] conv2 <- pool1
I0223 17:17:39.190441 18554 net.cpp:411] conv2 -> conv2
I0223 17:17:39.191306 18554 cudnn_conv_layer.cpp:198] Reallocating workspace storage: 10272
I0223 17:17:39.191457 18554 net.cpp:150] Setting up conv2
I0223 17:17:39.191465 18554 net.cpp:157] Top shape: 64 50 8 8 (204800)
I0223 17:17:39.191469 18554 net.cpp:165] Memory required for data: 10604800
I0223 17:17:39.191476 18554 layer_factory.hpp:76] Creating layer drop2
I0223 17:17:39.191481 18554 net.cpp:106] Creating Layer drop2
I0223 17:17:39.191484 18554 net.cpp:454] drop2 <- conv2
I0223 17:17:39.191488 18554 net.cpp:397] drop2 -> conv2 (in-place)
I0223 17:17:39.191505 18554 net.cpp:150] Setting up drop2
I0223 17:17:39.191510 18554 net.cpp:157] Top shape: 64 50 8 8 (204800)
I0223 17:17:39.191512 18554 net.cpp:165] Memory required for data: 11424000
I0223 17:17:39.191515 18554 layer_factory.hpp:76] Creating layer relu3
I0223 17:17:39.191520 18554 net.cpp:106] Creating Layer relu3
I0223 17:17:39.191524 18554 net.cpp:454] relu3 <- conv2
I0223 17:17:39.191526 18554 net.cpp:397] relu3 -> conv2 (in-place)
I0223 17:17:39.191779 18554 net.cpp:150] Setting up relu3
I0223 17:17:39.191788 18554 net.cpp:157] Top shape: 64 50 8 8 (204800)
I0223 17:17:39.191792 18554 net.cpp:165] Memory required for data: 12243200
I0223 17:17:39.191794 18554 layer_factory.hpp:76] Creating layer pool2
I0223 17:17:39.191802 18554 net.cpp:106] Creating Layer pool2
I0223 17:17:39.191804 18554 net.cpp:454] pool2 <- conv2
I0223 17:17:39.191809 18554 net.cpp:411] pool2 -> pool2
I0223 17:17:39.191936 18554 net.cpp:150] Setting up pool2
I0223 17:17:39.191941 18554 net.cpp:157] Top shape: 64 50 4 4 (51200)
I0223 17:17:39.191944 18554 net.cpp:165] Memory required for data: 12448000
I0223 17:17:39.191947 18554 layer_factory.hpp:76] Creating layer ip1
I0223 17:17:39.191954 18554 net.cpp:106] Creating Layer ip1
I0223 17:17:39.191957 18554 net.cpp:454] ip1 <- pool2
I0223 17:17:39.191962 18554 net.cpp:411] ip1 -> ip1
I0223 17:17:39.194308 18554 net.cpp:150] Setting up ip1
I0223 17:17:39.194317 18554 net.cpp:157] Top shape: 64 500 (32000)
I0223 17:17:39.194324 18554 net.cpp:165] Memory required for data: 12576000
I0223 17:17:39.194337 18554 layer_factory.hpp:76] Creating layer relu1
I0223 17:17:39.194341 18554 net.cpp:106] Creating Layer relu1
I0223 17:17:39.194344 18554 net.cpp:454] relu1 <- ip1
I0223 17:17:39.194350 18554 net.cpp:397] relu1 -> ip1 (in-place)
I0223 17:17:39.194602 18554 net.cpp:150] Setting up relu1
I0223 17:17:39.194610 18554 net.cpp:157] Top shape: 64 500 (32000)
I0223 17:17:39.194613 18554 net.cpp:165] Memory required for data: 12704000
I0223 17:17:39.194617 18554 layer_factory.hpp:76] Creating layer drop1
I0223 17:17:39.194620 18554 net.cpp:106] Creating Layer drop1
I0223 17:17:39.194623 18554 net.cpp:454] drop1 <- ip1
I0223 17:17:39.194628 18554 net.cpp:397] drop1 -> ip1 (in-place)
I0223 17:17:39.194646 18554 net.cpp:150] Setting up drop1
I0223 17:17:39.194650 18554 net.cpp:157] Top shape: 64 500 (32000)
I0223 17:17:39.194653 18554 net.cpp:165] Memory required for data: 12832000
I0223 17:17:39.194655 18554 layer_factory.hpp:76] Creating layer ip2
I0223 17:17:39.194660 18554 net.cpp:106] Creating Layer ip2
I0223 17:17:39.194664 18554 net.cpp:454] ip2 <- ip1
I0223 17:17:39.194669 18554 net.cpp:411] ip2 -> ip2
I0223 17:17:39.195067 18554 net.cpp:150] Setting up ip2
I0223 17:17:39.195075 18554 net.cpp:157] Top shape: 64 10 (640)
I0223 17:17:39.195078 18554 net.cpp:165] Memory required for data: 12834560
I0223 17:17:39.195083 18554 layer_factory.hpp:76] Creating layer loss
I0223 17:17:39.195089 18554 net.cpp:106] Creating Layer loss
I0223 17:17:39.195091 18554 net.cpp:454] loss <- ip2
I0223 17:17:39.195096 18554 net.cpp:454] loss <- label
I0223 17:17:39.195099 18554 net.cpp:411] loss -> loss
I0223 17:17:39.195111 18554 layer_factory.hpp:76] Creating layer loss
…
I0223 17:17:39.195679 18554 solver.cpp:180] Creating test net (#0) specified by net file: examples/mnist/lenet_train_test.prototxt
I0223 17:17:39.195719 18554 net.cpp:322] The NetState phase (1) differed from the phase (0) specified by a rule in layer mnist
I0223 17:17:39.195812 18554 net.cpp:49] Initializing net from parameters: 
name: "LeNet"
state {
  phase: TEST
}
layer {
  name: "mnist"
  type: "Data"
  top: "data"
  top: "label"
  include {
    phase: TEST
  }
  transform_param {
    scale: 0.00390625
  }
  data_param {
    source: "examples/mnist/mnist_test_lmdb"
    batch_size: 100
    backend: LMDB
  }
}
layer {
  name: "conv1"
  type: "Convolution"
  bottom: "data"
  top: "conv1"
  param {
    lr_mult: 1
  }
  param {
    lr_mult: 2
  }
  convolution_param {
    num_output: 20
    kernel_size: 5
    stride: 1
    weight_filler {
      type: "xavier"
    }
    bias_filler {
      type: "constant"
    }
  }
}
layer {
  name: "drop3"
  type: "Dropout"
  bottom: "conv1"
  top: "conv1"
  dropout_param {
    dropout_ratio: 0.1
  }
}
layer {
  name: "relu2"
  type: "ReLU"
  bottom: "conv1"
  top: "conv1"
}
layer {
  name: "pool1"
  type: "Pooling"
  bottom: "conv1"
  top: "pool1"
  pooling_param {
    pool: MAX
    kernel_size: 2
    stride: 2
  }
}
layer {
  name: "conv2"
  type: "Convolution"
  bottom: "pool1"
  top: "conv2"
  param {
    lr_mult: 1
  }
  param {
    lr_mult: 2
  }
  convolution_param {
    num_output: 50
    kernel_size: 5
    stride: 1
    weight_filler {
      type: "xavier"
    }
    bias_filler {
      type: "constant"
    }
  }
}
layer {
  name: "drop2"
  type: "Dropout"
  bottom: "conv2"
  top: "conv2"
  dropout_param {
    dropout_ratio: 0.1
  }
}
layer {
  name: "relu3"
  type: "ReLU"
  bottom: "conv2"
  top: "conv2"
}
layer {
  name: "pool2"
  type: "Pooling"
  bottom: "conv2"
  top: "pool2"
  pooling_param {
    pool: MAX
    kernel_size: 2
    stride: 2
  }
}
layer {
  name: "ip1"
  type: "InnerProduct"
  bottom: "pool2"
  top: "ip1"
  param {
    lr_mult: 1
  }
  param {
    lr_mult: 2
  }
  inner_product_param {
    num_output: 500
    weight_filler {
      type: "xavier"
    }
    bias_filler {
      type: "constant"
    }
  }
}
layer {
  name: "relu1"
  type: "ReLU"
  bottom: "ip1"
  top: "ip1"
}
layer {
  name: "drop1"
  type: "Dropout"
  bottom: "ip1"
  top: "ip1"
  dropout_param {
    dropout_ratio: 0.5
  }
}
layer {
  name: "ip2"
  type: "InnerProduct"
  bottom: "ip1"
  top: "ip2"
  param {
    lr_mult: 1
  }
  param {
    lr_mult: 2
  }
  inner_product_param {
    num_output: 10
    weight_filler {
      type: "xavier"
    }
    bias_filler {
      type: "constant"
    }
  }
}
layer {
  name: "accuracy"
  type: "Accuracy"
  bottom: "ip2"
  bottom: "label"
  top: "accuracy"
  include {
    phase: TEST
  }
}
layer {
  name: "loss"
  type: "SoftmaxWithLoss"
  bottom: "ip2"
  bottom: "label"
  top: "loss"
}
I0223 17:17:39.195883 18554 layer_factory.hpp:76] Creating layer mnist
I0223 17:17:39.195965 18554 net.cpp:106] Creating Layer mnist
I0223 17:17:39.195971 18554 net.cpp:411] mnist -> data
I0223 17:17:39.195976 18554 net.cpp:411] mnist -> label
I0223 17:17:39.196637 18559 db_lmdb.cpp:38] Opened lmdb examples/mnist/mnist_test_lmdb
I0223 17:17:39.196713 18554 data_layer.cpp:45] output data size: 100,1,28,28
I0223 17:17:39.197490 18554 net.cpp:150] Setting up mnist
I0223 17:17:39.197500 18554 net.cpp:157] Top shape: 100 1 28 28 (78400)
I0223 17:17:39.197504 18554 net.cpp:157] Top shape: 100 (100)
I0223 17:17:39.197507 18554 net.cpp:165] Memory required for data: 314000
I0223 17:17:39.197510 18554 layer_factory.hpp:76] Creating layer label_mnist_1_split
I0223 17:17:39.197516 18554 net.cpp:106] Creating Layer label_mnist_1_split
I0223 17:17:39.197520 18554 net.cpp:454] label_mnist_1_split <- label
I0223 17:17:39.197525 18554 net.cpp:411] label_mnist_1_split -> label_mnist_1_split_0
I0223 17:17:39.197530 18554 net.cpp:411] label_mnist_1_split -> label_mnist_1_split_1
I0223 17:17:39.197571 18554 net.cpp:150] Setting up label_mnist_1_split
I0223 17:17:39.197577 18554 net.cpp:157] Top shape: 100 (100)
I0223 17:17:39.197582 18554 net.cpp:157] Top shape: 100 (100)
I0223 17:17:39.197584 18554 net.cpp:165] Memory required for data: 314800
I0223 17:17:39.197587 18554 layer_factory.hpp:76] Creating layer conv1
I0223 17:17:39.197592 18554 net.cpp:106] Creating Layer conv1
I0223 17:17:39.197595 18554 net.cpp:454] conv1 <- data
I0223 17:17:39.197600 18554 net.cpp:411] conv1 -> conv1
I0223 17:17:39.198499 18554 cudnn_conv_layer.cpp:198] Reallocating workspace storage: 20664
I0223 17:17:39.198524 18554 net.cpp:150] Setting up conv1
I0223 17:17:39.198531 18554 net.cpp:157] Top shape: 100 20 24 24 (1152000)
I0223 17:17:39.198534 18554 net.cpp:165] Memory required for data: 4922800
I0223 17:17:39.198541 18554 layer_factory.hpp:76] Creating layer drop3
I0223 17:17:39.198547 18554 net.cpp:106] Creating Layer drop3
I0223 17:17:39.198550 18554 net.cpp:454] drop3 <- conv1
I0223 17:17:39.198557 18554 net.cpp:397] drop3 -> conv1 (in-place)
I0223 17:17:39.198580 18554 net.cpp:150] Setting up drop3
I0223 17:17:39.198585 18554 net.cpp:157] Top shape: 100 20 24 24 (1152000)
I0223 17:17:39.198586 18554 net.cpp:165] Memory required for data: 9530800
I0223 17:17:39.198590 18554 layer_factory.hpp:76] Creating layer relu2
I0223 17:17:39.198595 18554 net.cpp:106] Creating Layer relu2
I0223 17:17:39.198597 18554 net.cpp:454] relu2 <- conv1
I0223 17:17:39.198601 18554 net.cpp:397] relu2 -> conv1 (in-place)
I0223 17:17:39.198869 18554 net.cpp:150] Setting up relu2
I0223 17:17:39.198879 18554 net.cpp:157] Top shape: 100 20 24 24 (1152000)
I0223 17:17:39.198881 18554 net.cpp:165] Memory required for data: 14138800
I0223 17:17:39.198884 18554 layer_factory.hpp:76] Creating layer pool1
I0223 17:17:39.198890 18554 net.cpp:106] Creating Layer pool1
I0223 17:17:39.198894 18554 net.cpp:454] pool1 <- conv1
I0223 17:17:39.198897 18554 net.cpp:411] pool1 -> pool1
I0223 17:17:39.199029 18554 net.cpp:150] Setting up pool1
I0223 17:17:39.199036 18554 net.cpp:157] Top shape: 100 20 12 12 (288000)
I0223 17:17:39.199039 18554 net.cpp:165] Memory required for data: 15290800
I0223 17:17:39.199043 18554 layer_factory.hpp:76] Creating layer conv2
I0223 17:17:39.199048 18554 net.cpp:106] Creating Layer conv2
I0223 17:17:39.199051 18554 net.cpp:454] conv2 <- pool1
I0223 17:17:39.199056 18554 net.cpp:411] conv2 -> conv2
I0223 17:17:39.200031 18554 cudnn_conv_layer.cpp:198] Reallocating workspace storage: 10272
I0223 17:17:39.200088 18554 net.cpp:150] Setting up conv2
I0223 17:17:39.200104 18554 net.cpp:157] Top shape: 100 50 8 8 (320000)
I0223 17:17:39.200108 18554 net.cpp:165] Memory required for data: 16570800
I0223 17:17:39.200114 18554 layer_factory.hpp:76] Creating layer drop2
I0223 17:17:39.200119 18554 net.cpp:106] Creating Layer drop2
I0223 17:17:39.200122 18554 net.cpp:454] drop2 <- conv2
I0223 17:17:39.200126 18554 net.cpp:397] drop2 -> conv2 (in-place)
I0223 17:17:39.200144 18554 net.cpp:150] Setting up drop2
I0223 17:17:39.200147 18554 net.cpp:157] Top shape: 100 50 8 8 (320000)
I0223 17:17:39.200150 18554 net.cpp:165] Memory required for data: 17850800
I0223 17:17:39.200153 18554 layer_factory.hpp:76] Creating layer relu3
I0223 17:17:39.200160 18554 net.cpp:106] Creating Layer relu3
I0223 17:17:39.200162 18554 net.cpp:454] relu3 <- conv2
I0223 17:17:39.200167 18554 net.cpp:397] relu3 -> conv2 (in-place)
I0223 17:17:39.200420 18554 net.cpp:150] Setting up relu3
I0223 17:17:39.200428 18554 net.cpp:157] Top shape: 100 50 8 8 (320000)
I0223 17:17:39.200433 18554 net.cpp:165] Memory required for data: 19130800
I0223 17:17:39.200435 18554 layer_factory.hpp:76] Creating layer pool2
I0223 17:17:39.200439 18554 net.cpp:106] Creating Layer pool2
I0223 17:17:39.200443 18554 net.cpp:454] pool2 <- conv2
I0223 17:17:39.200448 18554 net.cpp:411] pool2 -> pool2
I0223 17:17:39.200587 18554 net.cpp:150] Setting up pool2
I0223 17:17:39.200595 18554 net.cpp:157] Top shape: 100 50 4 4 (80000)
I0223 17:17:39.200598 18554 net.cpp:165] Memory required for data: 19450800
I0223 17:17:39.200600 18554 layer_factory.hpp:76] Creating layer ip1
I0223 17:17:39.200606 18554 net.cpp:106] Creating Layer ip1
I0223 17:17:39.200609 18554 net.cpp:454] ip1 <- pool2
I0223 17:17:39.200615 18554 net.cpp:411] ip1 -> ip1
I0223 17:17:39.202953 18554 net.cpp:150] Setting up ip1
I0223 17:17:39.202962 18554 net.cpp:157] Top shape: 100 500 (50000)
I0223 17:17:39.202965 18554 net.cpp:165] Memory required for data: 19650800
I0223 17:17:39.202971 18554 layer_factory.hpp:76] Creating layer relu1
I0223 17:17:39.202977 18554 net.cpp:106] Creating Layer relu1
I0223 17:17:39.202980 18554 net.cpp:454] relu1 <- ip1
I0223 17:17:39.202985 18554 net.cpp:397] relu1 -> ip1 (in-place)
I0223 17:17:39.203239 18554 net.cpp:150] Setting up relu1
I0223 17:17:39.203248 18554 net.cpp:157] Top shape: 100 500 (50000)
I0223 17:17:39.203250 18554 net.cpp:165] Memory required for data: 19850800
I0223 17:17:39.203253 18554 layer_factory.hpp:76] Creating layer drop1
I0223 17:17:39.203261 18554 net.cpp:106] Creating Layer drop1
I0223 17:17:39.203269 18554 net.cpp:454] drop1 <- ip1
I0223 17:17:39.203272 18554 net.cpp:397] drop1 -> ip1 (in-place)
I0223 17:17:39.203291 18554 net.cpp:150] Setting up drop1
I0223 17:17:39.203296 18554 net.cpp:157] Top shape: 100 500 (50000)
I0223 17:17:39.203299 18554 net.cpp:165] Memory required for data: 20050800
I0223 17:17:39.203301 18554 layer_factory.hpp:76] Creating layer ip2
I0223 17:17:39.203307 18554 net.cpp:106] Creating Layer ip2
I0223 17:17:39.203310 18554 net.cpp:454] ip2 <- ip1
I0223 17:17:39.203315 18554 net.cpp:411] ip2 -> ip2
I0223 17:17:39.203408 18554 net.cpp:150] Setting up ip2
I0223 17:17:39.203413 18554 net.cpp:157] Top shape: 100 10 (1000)
I0223 17:17:39.203415 18554 net.cpp:165] Memory required for data: 20054800
I0223 17:17:39.203420 18554 layer_factory.hpp:76] Creating layer ip2_ip2_0_split
I0223 17:17:39.203425 18554 net.cpp:106] Creating Layer ip2_ip2_0_split
I0223 17:17:39.203428 18554 net.cpp:454] ip2_ip2_0_split <- ip2
I0223 17:17:39.203433 18554 net.cpp:411] ip2_ip2_0_split -> ip2_ip2_0_split_0
I0223 17:17:39.203436 18554 net.cpp:411] ip2_ip2_0_split -> ip2_ip2_0_split_1
I0223 17:17:39.203459 18554 net.cpp:150] Setting up ip2_ip2_0_split
I0223 17:17:39.203464 18554 net.cpp:157] Top shape: 100 10 (1000)
I0223 17:17:39.203466 18554 net.cpp:157] Top shape: 100 10 (1000)
I0223 17:17:39.203469 18554 net.cpp:165] Memory required for data: 20062800
I0223 17:17:39.203471 18554 layer_factory.hpp:76] Creating layer accuracy
I0223 17:17:39.203479 18554 net.cpp:106] Creating Layer accuracy
I0223 17:17:39.203481 18554 net.cpp:454] accuracy <- ip2_ip2_0_split_0
I0223 17:17:39.203485 18554 net.cpp:454] accuracy <- label_mnist_1_split_0
I0223 17:17:39.203490 18554 net.cpp:411] accuracy -> accuracy
…
